testat/mnist-classifier.pt (torch, 538335 bytes, 6 tensors)

layers.1.weight f4 [100, 784]
00000000: 9389 84bc 5e3b f13c 4a6a dbbc f7ac 013d
00000010: 0697 22bc eaeb 9c3c 6b18 123d 489a b4bc
00000020: 6469 b8bb 0e59 4bbc e0ea 813a 3a52 f2bc
00000030: 0f05 b5bc 61ec f7bc c765 ed3c 9940 20bc
00000040: 43e9 e4bc a823 d9bc 884b c0bb d5e8 fbbc
00000050: f86d ef3b e5d7 9dbc be27 d13c c586 113d
00000060: b274 fc3c 3e9a 02bd 7e93 8bbc 65d9 dbbc
00000070: 3f0a 0d3d a34c c1bc a660 c13c 7c3c 13bc
00000080: 4872 9f3b 28ef edbc 604f ce3b 3da4 f8bb
00000090: e67d 31bc 28c9 c63b 0448 c1bc f8a8 b43c
000000a0: 237f cebb 7c79 abbc 6ac5 db3b 4f01 05bd
000000b0: 6c22 b63c 68e7 ca3c 06d1 e5bc 9c6e 6bbc
000000c0: 0718 293c 7476 aebc 56bb 71bc 6b5d 26bc
000000d0: 5dce 0f3d 6aa2 44bc c0d8 dfbb 6ef7 f5bc
000000e0: dc38 d9bc f295 32bc 70b9 c63c 96ad 8c3b
000000f0: a216 a33c 40f8 1fbb d67c 433b 0435 0e3b
00000100: c7a3 a13c db75 1fbc 56b9 30bc ddfe 07bc
00000110: 5e3c 2cbc 6027 57bd 098c 4ebd a2ec 16bd
00000120: cb0b 44bd 8205 3a3c 2558 9bbc 1a5f f4bc
00000130: ea5b 7dbb d694 cdbc d7b9 a2bc a1f2 073d
00000140: 3eda ffbc f75e e5bc dc3e 743c 01ac fbbc
00000150: b359 efbc 98ee 943c d707 0b3d d72f 083c
00000160: 4e65 983c 75fa 033d a405 f03c 63ea cf3c
00000170: 1787 c73c e707 813c 52e1 003d 2b69 543c
00000180: a9ba 183d 392e b3bc 3efc 55bd fcbe 2cbd
00000190: fe95 5cbb ce36 a53c 3296 21bd d705 32bc
000001a0: ca35 53bc 9eb4 073d c8b5 f83c e4af 1dbd
000001b0: 677f f83c 1138 b5bc 857f fdbc ce81 43bc
000001c0: f295 e83c b35f f43c 05d0 8cbc d3a7 5dbc
000001d0: 7cec 403c 77e5 8d3c 1375 183d 3465 b23c
000001e0: bd51 123d 322b 8c3c a5ac 4c3c 433b 3d3d
000001f0: 90d9 463d 2454 d8bc e7ab 1b3d 2691 ee3c
00000200: 1dcb 20ba 97ed ee3c 4b88 393c 9a80 c13c
00000210: 741c 7ebc 0e11 c9ba ee5d 983c cec4 b8bc
00000220: 7778 553d 5a0a 0c3d 946b afbb 2a9a 58ba
00000230: d042 37bb c41a 11bc 8c1e 9fbc 258d 32bb
00000240: ad0d 093d bb42 2d3d 6e67 0d3c 241e b1ba
00000250: e213 f33c 5621 173d c244 943d 9f7d ad3d
00000260: ff54 763d 2156 753d 7333 013d 0696 62bb
00000270: 89cb 9e3c cf6c 7f3d 36f8 82bc cf23 b03c
00000280: 5d59 ddbb c095 e23c f0e2 d2bb ec4b cf3c
00000290: f8c4 143d 9863 fb3c ee32 b3bc 6a87 02bd
000002a0: 2006 4a3c 2039 8a3c 04c9 1e3c 22d1 f4bc
000002b0: e5af 103d 1b42 0f3c 4568 023d 4330 a83d
000002c0: 30e8 cd3d 1e71 d13d 4608 c73d 9dae ac3d
000002d0: 8e63 f73d ea27 3d3d 90f2 623d 3f8f 433d
000002e0: ea90 673d 762d 9b3b c653 fa3c c17c 443c
000002f0: 1d2b 583d a136 ae3c 709b d83c 92c2 df3c
00000300: 301a 073d 5a5b 973c 35c3 1a3d 0305 8bbc
00000310: 1b00 92bb 69c9 c1bc 0517 8f3a ce2d ed3c
00000320: c306 cc3c 93dc 893d 1b85 ab3d 5485 6f3d
00000330: fb4b 1e3e b434 0b3e 653e f23d 7c11 c33d
00000340: 397c fa3c 3ac5 673c aa4d 883b e150 2d3d
00000350: 6d1d cd3c 0605 3a3d 82c1 d63b 3109 393c
00000360: 60b1 243d b075 173d 32b7 5d3c 42e8 f03c
00000370: 11f5 633d 77dc ab3c f011 74bc 47d2 b13c
00000380: 6929 c63c ce19 093c 16c5 e8bc 6613 273b
00000390: 660a fb3c c08f 913d 0509 423d 4fdf cd3d
000003a0: 65fb 6b3d 2a15 cf3d 976c 973d 0813 c33d
000003b0: f400 953d 351a 643d c1df 923d 3e1f 813d
000003c0: a9bd 353d a526 6c3d 070f 473d af83 093d
000003d0: 2635 6c3d 11e0 5e3d e9d7 1f3d 5852 1e3d
000003e0: 557b 473d 7ce2 803d 4dbe 033d 7a55 d0bc
000003f0: 6093 86bc ba46 003d 503b a63c d0ac 323d
-0.016178882 0.029447254 -0.026784081 0.031659093 -0.009923702 0.019155461 0.035667818 -0.022046223
-0.005627798 -0.012411369 0.0009911917 -0.029580224 -0.022097139 -0.030264081 0.028979195 -0.009781026
-0.02794326 -0.02650626 -0.005868379 -0.030750671 0.0073068105 -0.019267986 0.025531646 0.035528917
0.030817363 -0.031885378 -0.017038103 -0.02683706 0.0344336 -0.023596114 0.023605656 -0.008986589
0.0048659183 -0.029044703 0.0062960833 -0.007587938 -0.010833239 0.00606646 -0.02359391 0.022053227
-0.006301777 -0.020931952 0.006706883 -0.03247195 0.02223321 0.024768546 -0.028053772 -0.014369633
0.01032067 -0.021296717 -0.014754137 -0.0101541085 0.035108913 -0.012001613 -0.0068312585 -0.03002521
-0.02651637 -0.010900008 0.024258345 0.004293154 0.019908253 -0.0024409443 0.0029829047 0.002169908
0.019731415 -0.009732689 -0.010786375 -0.00830051 -0.0105124395 -0.052527785 -0.050426517 -0.036846764
-0.04786281 0.011353852 -0.018962929 -0.029830504 -0.0038659521 -0.025095385 -0.019864006 0.033190373
-0.031231996 -0.027999384 0.014907565 -0.030721666 -0.029217577 0.018180177 0.033943024 0.008312187
0.018602993 0.032221276 0.029299565 0.025380319 0.024356408 0.015750838 0.031464882 0.012964527
0.037287388 -0.021872627 -0.05224251 -0.042174324 -0.0033658738 0.020167734 -0.039449878 -0.01086565
-0.012891242 0.033131234 0.030360118 -0.03849782 0.030334188 -0.022121461 -0.030944595 -0.011932803
0.028391812 0.02983079 -0.017189035 -0.013528782 0.011775132 0.017321331 0.037221026 0.021776773
0.035722483 0.01711044 0.012492334 0.046199095 0.048547328 -0.026407309 0.038005736 0.029121947
-0.0006133782 0.029166026 0.011323999 0.023620892 -0.015509713 -0.0015340166 0.018599477 -0.022554781
0.052116837 0.03418956 -0.0053534005 -0.00082627183 -0.0027963407 -0.008856479 -0.019423746 -0.0027244773
0.033460308 0.042299967 0.008630617 -0.0013513011 0.029672567 0.036897026 0.07239677 0.08471226
0.060139652 0.059896592 0.031543206 -0.0034574284 0.019384163 0.062359627 -0.015987497 0.02150145
-0.0067550377 0.027659297 -0.0064357445 0.025304757 0.036320657 0.030687138 -0.021874871 -0.031867422
0.012330562 0.016872942 0.009691481 -0.029884879 0.035323996 0.008743788 0.03183772 0.0821233
0.10054052 0.102266535 0.09718375 0.08431742 0.120795354 0.046180643 0.055407107 0.047744032
0.056534685 0.004735644 0.030557524 0.011992634 0.05277549 0.021266283 0.026441306 0.027314458
0.03298396 0.018476177 0.03778382 -0.016970163 -0.004455579 -0.02365561 0.0010916895 0.028952505
0.024905568 0.06731524 0.08374997 0.05847676 0.15458672 0.13594323 0.11828307 0.09524819
0.030576812 0.014146144 0.004159649 0.04231346 0.025038445 0.045414947 0.0065538296 0.011293695
0.04020822 0.03697747 0.013532447 0.029407624 0.055653635 0.02097915 -0.014896855 0.021706713
0.024189668 0.008367969 -0.02841429 0.002549374 0.030644607 0.07107496 0.047371883 0.10052358
0.057612795 0.101114586 0.07393759 0.09525114 0.072755724 0.055689055 0.07171584 0.06304787
0.044370327 0.05765404 0.048598316 0.03357285 0.057667874 0.054412905 0.039024267 0.038652748
0.048701603 0.062931985 0.032163907 -0.025431383 -0.016427696 0.03131745 0.020291954 0.043621838

layers.1.bias f4 [100]
00000000: 4675 84bc 7eee 643d 44f9 31bd f95f e4bc
00000010: 49e1 94bd ae2b 1c39 20ff 243d f3c0 163e
00000020: 3b04 9c3d 22eb 26bd 89da 0a3e 552a 82bd
00000030: 1aa6 83bb 163d fa3c 50ad 293d 623d bc3d
00000040: 79a9 1f3d d9c6 c0bc 590c 393d 0a38 543d
00000050: ae39 8fbb c3bd d8bc 509b 13bc 7ef2 4fbc
00000060: 4342 6fbc d971 0f3e be4e 753d 30c2 573d
00000070: 6a7f c03d 2c63 11bd ec6a 103e de84 d5bc
00000080: 6991 2e3e f3b5 113d 8591 4cbb 466a 053e
00000090: 6541 153d b347 32ba d9f5 8bbc 0338 493d
000000a0: 3a1c 41bc 6a25 0fbb 4ae1 a0bc 8b5d 35bc
000000b0: f118 c4bd 4be9 363d 980a ef3d 67a5 7cbc
000000c0: 0bbe d73c 584c 673d edf6 0a3b e8f3 ec3c
000000d0: 5e6a a23d 9ec6 bdbc a507 103e d741 dd3c
000000e0: ea1a 1ebc c11e 323e 4538 bdbb 9460 ebbc
000000f0: ba47 0cbd 5528 903c 6b4f c93d 1e40 833c
00000100: dd67 363d 52b2 bdbd 8344 983d 7c3e 9bbd
00000110: 7171 e3bc 83e5 ba3d 936f 27bd 8095 1e3c
00000120: 14cc 00bc 48bc f0bd 22c3 283e c7bd fd3c
00000130: 9c74 03bd fb01 3e3d 4e55 79bc 2613 863d
00000140: 7dc5 e53d 34f0 afbc 30ab 033d 9b08 6a3d
00000150: bf84 6b3d 4210 e6bb ec08 9c3d b6b2 393c
00000160: b926 f2bc c706 d33d 5b51 2cbd d5ec 79bd
00000170: 8ff6 8f3d a1b7 a03d c08c 8ebd 23e5 4dbc
00000180: 761f c73d 7e5f 893c 99bf 363d 0014 c03c
-0.016169202 0.055891506 -0.04345061 -0.027877795 -0.07269532 0.00014893591 0.04028237 0.14722042
0.076179944 -0.040751584 0.13559927 -0.063557304 -0.0040176036 0.030546706 0.04142505 0.09191395
0.03897998 -0.023532318 0.04517779 0.051811256 -0.0043708896 -0.026457673 -0.009009197 -0.012692092
-0.0146032 0.14008273 0.059889548 0.052675426 0.09399302 -0.03549497 0.14103287 -0.026064333
0.17047657 0.03557391 -0.0031214666 0.13028821 0.03643932 -0.0006800845 -0.017085003 0.049125683
-0.011786515 -0.002184237 -0.019638676 -0.011069666 -0.0957507 0.04465608 0.116719425 -0.015420294
0.026335737 0.05646929 0.0021204308 0.028924897 0.07930444 -0.023165997 0.14065416 0.027008934
-0.0096499715 0.17394544 -0.00577453 -0.028732575 -0.03424809 0.017597357 0.09829601 0.016021784
0.044532645 -0.092625275 0.074349426 -0.07580277 -0.027764054 0.09125807 -0.04087789 0.009679198
-0.007861156 -0.11754662 0.16480687 0.030974282 -0.03209363 0.046388607 -0.015218092 0.06546621
0.112193085 -0.021476842 0.03214568 0.057137113 0.057499643 -0.007020981 0.07618889 0.011334112
-0.02955948 0.10304027 -0.042069774 -0.061016876 0.07029449 0.078475244 -0.0696044 -0.0125668375
0.097227976 0.016769167 0.044616316 0.023447037

layers.3.weight f4 [500, 100]
00000000: 8178 0bbd c75c d1bc a74a 7c3b 0820 063e
00000010: 4edb e73d fa75 88bd 9953 cf3d 16ca a7bd
00000020: 0971 cbbd 2533 9cba 54d9 90bc 0b30 15bd
00000030: 17ed 48bd 12a8 68bd 3497 fa3b d5c3 313c
00000040: 2ef8 183c 8f4f 1dbe cbf6 54bd b4ca 80bc
00000050: 76eb 93bd 8666 43bd 8592 c5bd 0400 e63d
00000060: 0c7b c53d 376a adbd 7f45 b2bd 23a5 1fbd
00000070: 09ff b8bd af7e 6abd 0435 123d 0b1e 3c3d
00000080: eb69 82bd 2bb1 903d 4a39 5c3d e3cf cdbd
00000090: 4907 b23c 6e89 a33d a516 b23c 3f20 af3d
000000a0: c5a1 243d 1bcb 08bd 7333 30bd 1eda 1abd
000000b0: 2fb0 e23d d425 9a3d ea2b 1c3d 8daa a3bb
000000c0: a050 003b 9fb2 823d 6a59 02bd 9339 3e3d
000000d0: 1732 abbb 08eb 9abd cb26 6cbd 7b77 8bbd
000000e0: 3521 a83d cc38 5b3d 6b8e 9f3c d2be 353d
000000f0: f579 90bd 0e0c 1cbd 645b 2d3c 1f3a 483c
00000100: abca 293d 426d 953d 6a9c 1f3c 9805 d83d
00000110: 5526 64bc eed5 353c cce5 92bc 9529 ee3a
00000120: 6d08 0ebd b431 0c3e 794c cb3d 78ab ed3d
00000130: 98f7 603d 00aa d33c a4b0 8cbd a624 203d
00000140: a8e0 ca3c f3e3 0c3c db3c c13d f56b 493d
00000150: 8c76 babd 9747 ef3c 7af6 35bb 2c41 7abd
00000160: 708a 6e3d f809 6e3b c156 573d ac8b 723d
00000170: 3a1a 67bc 58b3 c53d f670 0c3d ec9d 5a3d
00000180: a9b8 1fbd 1555 a8bb 2a7d dcbb 97e7 1c3a
00000190: 006f 84bd 912d 5d3d bb83 debc 2b59 99bd
000001a0: 5500 35bd 8339 2dbc 3730 2cbc 3f9e 923d
000001b0: d3df 503d 2ab4 54bd 37b8 a1bd 028a 9fbd
000001c0: 135e 743d 5abe 94bd 6331 273d 112e 92bd
000001d0: f528 d9bb f142 ad3d 5102 a03c ead8 bbbd
000001e0: 9316 703d b92a a1bd c41b b83d 2bfa 333d
000001f0: a131 a83d 5e31 cd3c c2c7 cabd c95a a73c
00000200: cac6 7e39 5478 8dbd d0c8 84bd 1a76 b2bd
00000210: 3ee6 0f3d 38c3 633c 5d73 713d c367 c03d
00000220: 6a17 26bd 2f85 04bd a161 2cbd 49be 23bd
00000230: 8e59 8bbd 8b77 113d 28a6 b1bd 506b df3c
00000240: 098f 753d 1be1 743c a6cb 59bd 4d33 ad3c
00000250: 94e4 a33d f6a8 e53c bb88 1ebd 009d a63d
00000260: 0f4d afbd 561e 04bd c1f6 c4bd d50f ac3d
00000270: 716c 76bd 917a 323c f815 493d b47c b8bd
00000280: 37bd b43d 9823 2ebd 447f ac3d de40 c33c
00000290: 6887 bb3d d83d a0bd b30a 81bd 6e91 3fbc
000002a0: acfa 193d e00e 95bd 9069 193d fd58 b7bd
000002b0: 0df8 3cbd b19c 653d 8193 923d a243 233c
000002c0: c5c7 d7bc 6403 56bd ef19 2bba 9377 ccbd
000002d0: 2b0d 9f3d 5ba8 d93c b615 c53d 5bcc 96bd
000002e0: 82be 86bd 30ee a7bd 3fe0 26bd 1f92 cabd
000002f0: 83e0 c03d 6705 85bd 7e45 a33c 755a 98bd
00000300: 9568 093d 5578 c3bd ea00 a4bc 774a 00bc
00000310: 5099 a4bd 28dc b43c a496 b13d f8ec 71bd
00000320: 5dab e73c f17c 863d 9e16 293d 2e45 0c3c
00000330: 18db a33d cb41 cf3d 17fc ccbb 70e1 a03d
00000340: 67fd 9d3d 6d13 59bd 3641 e53c 017e 91bd
00000350: ff66 073e 579e ef3b 50f0 48bd 78ce 973c
00000360: ca20 a2bb 1bf5 e43d 8394 13bc 8440 c53d
00000370: cfc3 8f3c 821c a53d 8e77 cc3c c01f 923d
00000380: deea ac3d e102 ac3c cdc7 17bd 998e e6bd
00000390: 1343 e23c 8397 953c ac5a b9bd ee04 93bd
000003a0: 716b a93d 9168 fe3d eda2 91bd 4b6d 8cbb
000003b0: 8438 a93d db61 bcbd 10c7 b8bc 41f0 633d
000003c0: c5a6 b83d abc7 603d 5907 afbd d9df b03c
000003d0: 7e3b 6abb c4bf b53c 09f7 653d da50 87bc
000003e0: ca0d 153d 4718 62bd e585 803d 81cf ba3d
000003f0: 8482 a53d 8b57 273d 9dfd 0bbb fec4 8a3d
-0.03405047 -0.025556935 0.0038496645 0.13098156 0.11321126 -0.06663127 0.10123367 -0.08192842
-0.09933669 -0.0011917098 -0.017681755 -0.03642277 -0.04905423 -0.05680091 0.0076474193 0.010849913
0.009336514 -0.1536238 -0.051993173 -0.015721656 -0.07222645 -0.047705196 -0.09647087 0.11230472
0.0964261 -0.084675245 -0.087046616 -0.038975846 -0.09033019 -0.05724972 0.03569509 0.04592709
-0.063678585 0.07065042 0.053765573 -0.10049417 0.02173199 0.07985197 0.021739313 0.08551072
0.040193338 -0.03339682 -0.043017816 -0.03780567 0.110687606 0.075267464 0.038127817 -0.0049946965
0.0019579306 0.063817255 -0.031823553 0.046441626 -0.005224477 -0.0756436 -0.057654183 -0.068098985
0.08209459 0.053520963 0.01947709 0.044371434 -0.070545115 -0.038097434 0.010580871 0.012220888
0.041453045 0.0729623 0.009741882 0.10547942 -0.013925155 0.011098368 -0.017931841 0.0018170351
-0.034676004 0.13690835 0.099266954 0.11604971 0.054923624 0.025837898 -0.06869629 0.03909745
0.024765328 0.008599269 0.094354354 0.04917522 -0.09104642 0.029208941 -0.002776532 -0.06109731
0.058237493 0.003632186 0.05257297 0.059215233 -0.014105374 0.09653348 0.034287415 0.053373262
-0.038994465 -0.0051370957 -0.006728788 0.00059854373 -0.06466484 0.053998534 -0.027162423 -0.074877106
-0.04418977 -0.010572794 -0.010509542 0.07159089 0.050994705 -0.05192963 -0.07896464 -0.07789995
0.05966003 -0.07262869 0.040818583 -0.07137693 -0.006627197 0.08460034 0.019532355 -0.091722324
0.05861528 -0.07869477 0.08989671 0.04393975 0.08212591 0.025047954 -0.09901382 0.020429032
0.00024297382 -0.069077164 -0.064836144 -0.08713932 0.035131685 0.013901524 0.05894791 0.09394791
-0.040549673 -0.032353576 -0.042085294 -0.039976392 -0.068041906 0.035514396 -0.0867427 0.02727285
0.059950862 0.014946247 -0.05317273 0.021142626 0.08002582 0.028034668 -0.038704615 0.08135414
-0.0855962 -0.032255493 -0.09617377 0.08401457 -0.06016201 0.01089348 0.049093217 -0.0900816
0.08825152 -0.042514414 0.084227115 0.023834642 0.09156686 -0.07824296 -0.06300869 -0.011692388
0.037592575 -0.07278228 0.037454188 -0.0895252 -0.046134997 0.056057636 0.071570404 0.009964855
-0.026340375 -0.052249327 -0.0006526997 -0.099837445 0.077661835 0.026569536 0.09623282 -0.073631965
-0.06579305 -0.081997275 -0.0407412 -0.09891152 0.09417822 -0.06495171 0.019930597 -0.07439128
0.033547003 -0.09544436 -0.020019967 -0.007830254 -0.080370545 0.022077635 0.086713105 -0.05906388
0.028279955 0.065667994 0.041281335 0.008561416 0.08000773 0.10119971 -0.0062556374 0.07855499
0.07714348 -0.05299704 0.027985197 -0.071041115 0.13222884 0.0073125768 -0.049057305 0.01853107
-0.0049477564 0.11179563 -0.009007576 0.09631446 0.017549424 0.08062078 0.024959352 0.07134962
0.08443235 0.020997467 -0.03705578 -0.11257667 0.027619874 0.018260723 -0.090504974 -0.07178675
0.08272446 0.12422288 -0.07111154 -0.0042854897 0.082627326 -0.09198352 -0.022555858 0.055649046
0.09016184 0.05487792 -0.08546323 0.021591114 -0.0035741027 0.022186168 0.056143794 -0.016518045
0.036390103 -0.055198934 0.06275538 0.091216095 0.080815345 0.04085497 -0.0021360882 0.067758545

layers.3.bias f4 [500]
00000000: ad5f 123d 5a17 f6bc 2a26 a63d 8ebd c23a
00000010: 2403 0c3d 63f3 653d 10f2 98bd 2f50 58bd
00000020: 3e4e 8bbd 0cff 933d 868f 2f3c 63a6 dd3b
00000030: 311a b33d 71a9 223d 6a51 dc3c 35d5 3bbd
00000040: d1fd 4b3d 75e8 203c b57b 3fbd 0142 47bc
00000050: eb94 fa3a 1fa7 533d ccc1 85bc ff6d 65bd
00000060: 5842 ab3d 9214 ba3c 5081 003d cb91 a63d
00000070: cf22 093d 909b 36bd bb7e 473d 0a40 69bd
00000080: 2ac1 81bd 34db cb3d d69f a5bd e63c a03d
00000090: dc20 69bc a8fe aabd ede4 09bd c940 21bd
000000a0: e894 253d 7e59 2abd a3a3 643d 95b4 30ba
000000b0: a291 8b3d e415 3d3d 9edb 3b3d e65a b4bd
000000c0: 18fe ce3c 6569 573d 6fde 923d 6304 0c3e
000000d0: 1800 a73c 0c36 4fbd c0d0 b5bd bb1a 6ebd
000000e0: c90a 173e f742 a8bd f432 713c 131f a1bd
000000f0: 9009 753d 5b66 89bd adee af3d 3b5e b93d
00000100: 8425 bebc b83b 883c e194 13bd 1c5c 383d
00000110: 3cfb 2cbd 16cb 11bd cf5b f03d f61f 2fbd
00000120: 4145 943d ce8c 7b3d 6676 da3c 5107 d53d
00000130: a2a3 493d 82f7 bb3d 44a5 6fbd ceb5 e23d
00000140: bfcd 3dbd 0811 11bd 23ec 123b 94b1 92bd
00000150: 8c19 213e e626 053e 895f a9bd 81e6 57bc
00000160: 646c e93d 41ed 133d 33f3 3b3d 8d3a 9c3c
00000170: d432 92bd c43c aa3d 17e2 083e 0593 f13d
00000180: 63ee 0bbc 9180 363c f03b dc3c 889f b83d
00000190: 3a98 3fbd 5f28 a1bd 2740 aebc e695 4d3d
000001a0: 1041 353c 1f0d d4bc d286 9c3d bb80 513d
000001b0: de09 9bbb 0b71 18bd 1359 ecbb 5b35 213d
000001c0: 0e05 a3bd 899b b93d d687 333c 77b2 93bd
000001d0: f715 1fbd 352d 62bd 20d1 0cbd 1851 eabc
000001e0: b615 8f3d 40bb 6c3d 9c74 9abc 6dde 41bd
000001f0: e87a 5f3d 8927 e93c f27a e7bc acc7 413d
00000200: 3dd3 903d 4096 13bd c790 95bd d4fc 8ebd
00000210: ae6c 593d b210 b9bc ad83 a5bd d5de 9f3d
00000220: ffd1 8c3c 73b3 71bd 79e4 35bd 102f 453d
00000230: 3dff 0bbd 23db 6ebc 007b b2bd 0665 f23c
00000240: a357 afbc dc8e fcbc c310 a23d 6d42 d23d
00000250: 15c5 d6bd 603d e93d 78d7 e33b d0db 7c3d
00000260: ea82 1d3c 3634 163d 0413 a83c 8421 913d
00000270: 7e2a 59bd 2578 9b3d 95ea 923d 1915 84bb
00000280: ae0b 8f3d ef67 49bd 4a88 123d 5aea 933d
00000290: 893b 88bd d94b 4e3c 8ea1 c6bd 92c7 0bbb
000002a0: 59ce 89bd 00b4 8fbd 4ec4 2d3d 1fe1 483d
000002b0: 94c4 a3bd 29c6 af3d 7f88 d33d 7225 a03d
000002c0: 84f0 eb3d 0292 b7bd b709 bb3a 6dbb f23d
000002d0: dce9 5ebd 93bc a7bd 3152 32bd 575c a0bd
000002e0: 941b c93c a7b9 21bd bbf3 133e 6262 6fbd
000002f0: 4e26 5abd 44f9 a4bd 5478 14bd 0a16 3d3c
00000300: d033 27bd de18 70bc a294 033e 3697 033e
00000310: 0eb1 bc3d 99fe f03d e505 6dbd 63ad ab3d
00000320: 13fe a93d 2177 06bd a9f5 d6bc ff8a 6abd
00000330: 1a09 463d 3e3d 82bc 8a4c 83bc 7717 3cbd
00000340: 1920 a3bb 46f0 b33d 5527 27bb 4071 983b
00000350: e862 c13d 37e3 383d 861f 94bd 2e83 e03d
00000360: 9443 643d a4cc 213d 0bf3 79bd 4dc9 173d
00000370: ad9d b03d c450 abbc ff0b a63d 76c1 a03d
00000380: f7d5 003d 4747 a13c 1fa3 bd3d 78e2 1e3e
00000390: ea37 593d 2b01 813d a815 84bc 252e 18bb
000003a0: 63da f43b 223a b53d af8d 693d 3c51 87bd
000003b0: e415 5dbd 0e98 2c3c de22 5b3b a7f5 89bd
000003c0: 07e6 64bc c0c9 a5bd 33da c9bd a8a9 bcbd
000003d0: 364b 423c 3bfc 003d bef9 97bd dc34 8fbc
000003e0: a1d9 c63d 1caa 2b3d a577 a43d 01c3 b4bd
000003f0: 4f47 a8bc 9aca 2d3d 2735 16bd 1594 d13d
0.035735775 -0.030040432 0.08112748 0.0014857517 0.034182683 0.056140315 -0.07468045 -0.052810844
-0.06802033 0.07226381 0.010715371 0.0067642196 0.0874523 0.039712373 0.02689429 -0.045857627
0.049802605 0.009821047 -0.046748836 -0.012161733 0.0019117867 0.05167305 -0.016327761 -0.056013104
0.083622634 0.022714887 0.031373322 0.081332766 0.03348046 -0.04458195 0.048704844 -0.056945838
-0.06335671 0.09953919 -0.08087127 0.078241155 -0.014229026 -0.08349353 -0.033665586 -0.039368425
0.04042521 -0.041589253 0.05582012 -0.0006740776 0.06814887 0.046163455 0.04586374 -0.088064
0.025267646 0.052590746 0.07171332 0.13673548 0.020385787 -0.050588652 -0.088777065 -0.05813096
0.14750208 -0.082158975 0.014721621 -0.07867255 0.059823573 -0.06708976 0.08590446 0.09051176
-0.023211248 0.016630039 -0.036030654 0.045009717 -0.042231783 -0.03559407 0.11736261 -0.04275509
0.07239772 0.06141358 0.026667785 0.10401786 0.049228318 0.09178068 -0.05850722 0.11069833
-0.046338793 -0.035416633 0.002241858 -0.071627766 0.15732402 0.1300312 -0.08270175 -0.013177515
0.11397627 0.036114935 0.04588623 0.019070888 -0.07138601 0.083123714 0.13367496 0.1179562
-0.008540723 0.011139051 0.02688405 0.09014803 -0.046776034 -0.07869028 -0.021270825 0.050191782
0.011062875 -0.025885163 0.076429024 0.051148158 -0.004731401 -0.03721718 -0.007212767 0.039357524
-0.079599485 0.09062869 0.010957679 -0.07211774 -0.038839307 -0.055218894 -0.034379125 -0.028603122
0.06986563 0.057795763 -0.018854432 -0.047331262 0.054560572 0.028461235 -0.028256867 0.047309563
0.070715405 -0.03603196 -0.07303005 -0.06981817 0.05308216 -0.022590969 -0.08081756 0.07806174
0.017189978 -0.059009027 -0.04440734 0.048140585 -0.03417896 -0.014578613 -0.08714867 0.029589187
-0.021404093 -0.03082984 0.07913353 0.10266576 -0.10486809 0.113886595 0.006953176 0.061733067
0.009613732 0.036670886 0.02051688 0.07086471 -0.05301904 0.07591275 0.07173649 -0.0040308353
0.069846496 -0.049171384 0.035774507 0.072224334 -0.066519804 0.012591326 -0.09698783 -0.002132867
-0.06728811 -0.07016754 0.04242354 0.049042817 -0.07996479 0.08582718 0.10328769 0.07819642
0.11520484 -0.08963396 0.0014269863 0.11852155 -0.054422244 -0.081902646 -0.043535415 -0.078301124
0.024549283 -0.039483692 0.14448445 -0.058443435 -0.053259186 -0.08055356 -0.036247566 0.011540899
-0.040820897 -0.014654366 0.12849668 0.12850651 0.09213458 0.11767311 -0.05786695 0.0838268
0.08300414 -0.032828454 -0.026240187 -0.057261463 0.048348524 -0.015898343 -0.016027708 -0.045920815
-0.0049781916 0.08786063 -0.0025505621 0.0046521723 0.09442693 0.045138564 -0.07232575 0.109625205
0.05572851 0.0395018 -0.0610228 0.03705721 0.08623824 -0.020912535 0.08107757 0.078494
0.031454053 0.019687308 0.092596285 0.15516078 0.05303184 0.06299051 -0.016123608 -0.0023220864
0.007472323 0.088489786 0.057019886 -0.06607291 -0.053975955 0.0105343 0.003343753 -0.067363076
-0.013970858 -0.080951214 -0.09856071 -0.09212047 0.011858752 0.031490546 -0.074206814 -0.01748126
0.09709478 0.041910276 0.08030633 -0.088262565 -0.020541815 0.042429544 -0.036671784 0.102333225

layers.5.weight f4 [10, 500]
00000000: 158b 873d 11fc c13c 1abc f3bd 3ead bebd
00000010: 569b 2fbd 1bbc 0ebd ef29 823d db78 2fbd
00000020: a869 5d3e 4823 83bd b2f8 a4bc 077a 4a3e
00000030: 0fd2 123d 0d44 fdbd eea3 dd3d 178a 74bd
00000040: fc72 02bd 08ef 2a3d fa1d 713d a835 0bbd
00000050: 8d0a 1b3d 98dd 1ebd 43b2 2e3d 09c7 dbbb
00000060: a581 153c ebd7 2abb bee1 6fbd 4be1 b93c
00000070: e3a0 533d feeb b5bd b100 533c ce6a 9dbd
00000080: 13f0 3dbd f607 143e d38b ba3d 1b3c 033d
00000090: a7fc 4ebd 3db9 c13d 3f84 16bb 6d5e 36bd
000000a0: e4f8 d73c d40e 8a3d 3370 a93b de7a a03d
000000b0: a12c c0bc e181 b1bd 34ac 103d 8007 c73c
000000c0: b0e6 6fbd fb90 89bc afa3 2ebd 237b a0bc
000000d0: eca4 cd3b a5d7 a03b 8033 8dbd 8d44 94bc
000000e0: d0d4 d1bc 4f81 debc ec7a b4bc 3db2 90bb
000000f0: 81bf 803d 259c 4abd 7e73 aebc cd93 02bd
00000100: ab36 6abd 5a88 833d 0c2c c43c 51df d63d
00000110: db49 3abd 7ea9 d23c 8191 1cbe 0516 263d
00000120: e761 19bd 9034 dbbd 212f b5bc 0017 86bd
00000130: 5adc 9d3a 0ca7 1a3b e8cb 60bc b3ee 57bd
00000140: a356 863d 0104 053b 2aa5 65bc bb4f 653d
00000150: 62a6 c3bd 7982 8ebd 4ae1 063d dcb6 02bd
00000160: a2b3 893b b3dd 33bc 26b4 85bc cd30 d1bc
00000170: f3c3 04bd cd1e 6fbd 1764 c2bd 3202 94bd
00000180: 5b63 3ebd e207 063e b05b 493d 0ee5 5f3b
00000190: 42f9 353e cad9 3bbc b7b8 8d3d 54ea de3c
000001a0: 7e31 53bd e86f ef3d 4411 9abc c0f3 06bd
000001b0: 38f1 d33d a48f b43d 2da3 99bd 9c85 083c
000001c0: b46f 1e3d 1c69 223d 2944 b43d 838f a23c
000001d0: e913 3e3c 0f2c 9b3c 31ec 1ebd e393 863d
000001e0: 6a87 1ebe 110d 4fbc 62d0 933c ce35 f8bd
000001f0: fa5b 9a3b 69f2 f2bc 6975 07be c7c2 acbd
00000200: 580b 6e3e 45ce dcbb f017 ed3d 5252 a03c
00000210: 4ccf 903d 4ed8 f3bb a972 82bd 32da 073e
00000220: 15d3 3f3e 93b2 b0bc 8b1f 3fbe e83c fabc
00000230: 044e 203e 8ec4 12be a25b 48bc dd98 35bd
00000240: e925 f73d 4e5e 3d3d 2523 873d ebd4 503c
00000250: d0b2 1b3d 1f31 6abe 4d14 0d3d da74 edbd
00000260: 244e a8bd 4d81 30bc f15a cabd 0be6 9abb
00000270: a296 52bb f78b 1cbb 462f 1e3e c0d7 663b
00000280: 8059 9dbd 22ef 1fbc 72c4 8cbc 7628 24be
00000290: 5ca1 1c3e 885a 093e 5031 b7bd f4f6 0cbd
000002a0: 4f69 a63d 9db2 a9bd 2e6f d83c 7858 89bc
000002b0: 2449 e93c e4e0 093e 7245 59be 3b9b 503e
000002c0: 0fcc a4bc 6fde c73c 0806 183c 46c1 a03c
000002d0: 61ea 893e 2e2c 1a3e eb5d f63b 0026 6dbd
000002e0: f698 50bd f50a 08bd 6ca6 b9bb d896 01be
000002f0: 3aa8 bf3c 6df2 82bc 1437 fdbd b426 ddbb
00000300: 905b 163c b7cc 853d 9d5d f6bd 69de 3abe
00000310: 978d 3ebd 5af0 8abd 73f1 babd 6970 28bd
00000320: 2532 12be 208e 33bd 1eb6 913d 87d4 56bc
00000330: 955c f03c 05f5 b13c caca 2fbc 328b f9bc
00000340: eb6b c03b a075 02be 58c7 94bc 9b39 f23d
00000350: ec13 83bd d98e 883d e48f 8ebd 3a53 57be
00000360: e41b 30bd 12c9 24bc a844 f7bd aac4 c43c
00000370: 463e 6abb f3f5 d83d c5bf 553d 3701 e1bd
00000380: af04 1abb 6ea4 9bbb 2def 06be bd4d cfbc
00000390: a965 663c 4f05 a43d c610 613c c33f 0f3e
000003a0: 1400 c2bc 5804 2dbe 4525 71bc 7db6 21be
000003b0: a84a e0bc 9c4a 913d 794c 1e3e ad62 083d
000003c0: 5bd1 9dbc 07d8 85ba 2a9a 093e 33f3 123e
000003d0: cfc9 abba 0e14 4c3d 61e6 85bc 3a9c 043d
000003e0: ed0b 4bbd cffa eebc f0cb cf3b 9e36 eabc
000003f0: 101b 46bd 5f1b 10bd b38e 16bd 81a3 8c3c
0.06618325 0.023679765 -0.11901112 -0.09310387 -0.04287275 -0.03484736 0.063556544 -0.042839866
0.21622336 -0.06403214 -0.020138118 0.19773112 0.03584486 -0.12366495 0.10822283 -0.059702005
-0.03184794 0.041731864 0.05886648 -0.033986717 0.03785186 -0.038785547 0.042650472 -0.0067070764
0.009125148 -0.0026068639 -0.058564894 0.022690436 0.051667105 -0.088829026 0.012878583 -0.07686387
-0.04637153 0.14456162 0.091087006 0.032039743 -0.050533917 0.094591595 -0.0022967008 -0.044523645
0.026363797 0.067411095 0.005170846 0.07835935 -0.02345878 -0.086673506 0.035320476 0.024295568
-0.05856961 -0.016792765 -0.04263657 -0.019589966 0.0062757637 0.0049085193 -0.068945885 -0.018099094
-0.025614172 -0.027161269 -0.02203127 -0.004415779 0.062865265 -0.049465317 -0.021295305 -0.031879235
-0.05718104 0.06422491 0.023946784 0.10491813 -0.04548059 0.025715586 -0.1528988 0.040548343
-0.037446883 -0.10703385 -0.0221172 -0.06547356 0.0012043819 0.0023598103 -0.01372049 -0.052717876
0.065594934 0.0020296576 -0.014016429 0.05598424 -0.095532194 -0.069584794 0.032929696 -0.03191267
0.004202322 -0.01097815 -0.016321253 -0.025535965 -0.032413434 -0.058378983 -0.09491747 -0.07226981
-0.04648147 0.13088945 0.049159706 0.0034163627 0.17770866 -0.011465499 0.06919997 0.027211346
-0.05156087 0.11691266 -0.018807061 -0.032947302 0.10348743 0.0881646 -0.075018264 0.008332636
0.038680747 0.03965102 0.08802063 0.019843822 0.011601427 0.018941907 -0.03879947 0.06571176
-0.15481344 -0.012637393 0.0180437 -0.121196374 0.0047106715 -0.029656606 -0.13228382 -0.08435588
0.23246515 -0.0067384564 0.11576831 0.019570503 0.07070789 -0.007441557 -0.06369526 0.13266829
0.18732865 -0.021569526 -0.18664376 -0.03054662 0.1565476 -0.14332792 -0.012228878 -0.044335235
0.12067778 0.046232514 0.065985 0.012746076 0.038012326 -0.228703 0.03444319 -0.11594553
-0.08218029 -0.010773015 -0.09880627 -0.0047271303 -0.0032133241 -0.0023887136 0.15447721 0.0035223812
-0.076830864 -0.009761604 -0.017183516 -0.1603106 0.15295929 0.13413441 -0.089449525 -0.0344152
0.08125555 -0.08286021 0.026420202 -0.016765818 0.028477259 0.13464695 -0.21217898 0.20371716
-0.020116834 0.024398057 0.009278782 0.01962341 0.2693663 0.15055916 0.00751852 -0.057897568
-0.050927125 -0.033213574 -0.005665591 -0.12655199 0.023395646 -0.015984738 -0.12364021 -0.0067489985
0.009177104 0.06533187 -0.12029574 -0.18248905 -0.04652175 -0.06784125 -0.09128084 -0.041122828
-0.14276941 -0.043836713 0.07114814 -0.013112194 0.029341022 0.02172328 -0.010729501 -0.030461881
0.00587224 -0.12740183 -0.01816146 0.118273936 -0.06400284 0.06667871 -0.06961039 -0.21027842
-0.04299535 -0.0100577045 -0.12073642 0.024019558 -0.0035742684 0.10593786 0.05218484 -0.1098656
-0.0023501327 -0.004749826 -0.13177176 -0.025305623 0.014062324 0.08008825 0.013736909 0.13989167
-0.023681678 -0.16896188 -0.014718358 -0.1579227 -0.027379349 0.07094309 0.1545886 0.03329723
-0.019264868 -0.0010211476 0.13437715 0.14350586 -0.0013106408 0.049823813 -0.016345205 0.03237555
-0.04957192 -0.02917233 0.00634145 -0.028590497 -0.048365653 -0.035182353 -0.036757182 0.017167808

layers.5.bias f4 [10]
00000000: 5190 62be c451 833e 38a4 b5bd bc8c febd
00000010: 12d9 153d e849 4d3e 42d8 72bd cd56 9e3d
00000020: e271 fbbd 5a12 023c
-0.22125365 0.2564832 -0.08869213 -0.12429187 0.036583968 0.20047724 -0.05928827 0.077314
-0.12277581 0.007938946
